best_model.pth (torch, 179874 bytes, 9 tensors)

cnn_model.0.weight f4 [6, 3, 5, 5]
00000000: 8fef 75bd b7bc a6bd 2422 25bd 594b b2bd
00000010: 7ec6 e4bd 8d03 943d 4d77 3939 c810 c53d
00000020: 0c13 6bbd e791 633b 8b0b b53d a22f 25bc
00000030: e104 d13d 0c77 873d a4a6 1cbd 5366 083d
00000040: 306a d2bd fb2b 2cbd 0c08 c8bd 6699 f5bd
00000050: a6c7 fb3c f15e 8abd be57 253c 1077 a5bc
00000060: f574 b3bd f1c3 93bd 594d 883d 677c 7d3d
00000070: 667b c73d e54d 133b 46e5 c63c 19db fdbc
00000080: e2bc 503d 28d1 d83d 82c2 45bd 5611 633c
00000090: 7902 c8bd 8a94 2dbc c7e8 4e3c e9ca f8bd
000000a0: 6fce d8bb 2a08 99bc f257 253d e9b9 8a3d
000000b0: 52d8 403d 969d 8c3c fa62 dc3c 66cc c93d
000000c0: 2eb5 81bd f90c b0bd bd1f 54bd e612 04bc
000000d0: 8863 8cbc aa79 e4bd d458 c0bc 8212 0f3d
000000e0: 5a11 f0bc 1114 64bd db42 0e3d 0c0b 9b3d
000000f0: 8b3c 9fbd 42ed bc3d a90b d1bd 29ba 023d
00000100: 2271 9b3d 62a6 f73c 8886 f2bc 5783 823d
00000110: 5b25 d6bc 758c e03d d765 1a3d 7396 86bc
00000120: edb9 85bd 6597 28bd 24a6 acbd a223 da3d
00000130: c657 07bd 40c4 a9bd 1f96 f63b 5452 b83d
00000140: edf9 29bd 2a8a 2ebd d7f5 b13d 1099 57bd
00000150: 84f1 a5bc 5095 6d3d 3c5c aebd b8c6 bcbd
00000160: 0de0 cbbc 8a2a 953d ba56 9a3d ec9b 85bd
00000170: a20d bcbd dbfd b3bd c550 c03c 674d a4bd
00000180: d560 debd 0892 4fbc e3c6 983b fbac 28bd
00000190: fd12 64bc 648c 593d 44fe 0e3d a918 b9bd
000001a0: 2316 e6bd 3614 853d 15c7 d6bd 542f 54bd
000001b0: 4ed2 873d e36b a73d 7f3e edbc d041 5bbb
000001c0: f432 15bd 1c9a c93d a969 c4bd 2099 89bb
000001d0: ed55 22bd ad4b 263b f3dc f53c c6ec 3f3d
000001e0: c7c8 bd3d 7537 8dbd 8263 d43d 8552 d0bd
000001f0: 8df7 ca3b 01ca 8abd e3b3 f7bd d912 433d
00000200: 6ff9 ab3d 1c4e b53d b84d 72bd c1d1 45bd
00000210: 928d d43d 3f4e d03d 6997 cfbd 8373 c8bd
00000220: 01b7 5bbd 894c d4bd 1666 06bc d555 92bc
00000230: 8745 22bd 985a 44bd 05a7 953d c066 9a3d
00000240: 268f 22bc 8077 d53d 2d08 d83d a059 d33d
00000250: 1012 6b3d 00ce 793c 4d0b 013d 5781 64bd
00000260: 09be a8bc 2be4 b6bd c767 7ebd d891 cbbd
00000270: bf3f 95bd c003 c4bb 991b 613b 4318 9c3b
00000280: fa2e b83d 07da 913d 98c9 b33d 00e0 0a3d
00000290: 266a e1bd 835e a7ba 1425 263a a53a e43d
000002a0: 1287 893d e46d 883d 94e6 55bd 1e92 fe3d
000002b0: 646b da3c 6972 ff3c 9327 e53d b9e9 6e3d
000002c0: b03a 793d 5ee0 2a3a 9138 0bbd 7a07 22bd
000002d0: b05d 61bd 1205 85bd 2f88 e3bd 1e34 a53d
000002e0: c3e7 b7bc 7f25 afbd 713d 8c3d 9622 68bb
000002f0: 5982 ec3c 3652 2ebd c6a9 6cbd 8180 853d
00000300: 14d5 8bbd 6149 5f3c 89f8 0b3d ac65 903d
00000310: 6ada 963d 56e7 a8bd e3f9 ca3d 2ae6 f4bc
00000320: b7cd bf3c ccb5 d6bd 4a2d bfbd a793 bb3d
00000330: a2b7 d0bd f6ad 8dbc c732 753d 94ce 13bc
00000340: 9771 d03d f63e b23d 6d88 2fbc fa30 f13b
00000350: 39ab 8fbd 0dda 8ebc 66cf ca3c e99e a2bd
00000360: 94f8 c33d 5ff2 6a3c 6409 3ebd d45a a33d
00000370: 3b0e 393d 09c8 63bd 26e6 87bc 2ade aabd
00000380: 4e5f a13d 2be5 ebbc f764 39bd 42e1 373d
00000390: 5929 b53c 033f b5bd 1a4e 0fbd a148 d5bd
000003a0: 4505 9e3d 991e 723d 9ef6 f6bd 1711 41bd
000003b0: 9616 253d a661 a7bd 181f 913d 16ef 7abd
000003c0: fee3 abbd bf64 6d3d 8687 e3bd c63d a2bc
000003d0: 0a2e 79bd f507 b4bd 96f2 da3c b8b3 aabc
000003e0: 638b b1bd a429 06bd 4482 213d b962 043d
000003f0: 5c7e cc3d ed0c d8bd f148 223c 225f 603d
-0.060042914 -0.08141463 -0.040315762 -0.08705778 -0.11170672 0.0722724 0.00017687418 0.096223414
-0.05739121 0.0034724416 0.08840092 -0.010082157 0.10206009 0.06614503 -0.03824486 0.03330071
-0.1027416 -0.04203413 -0.0976716 -0.11992149 0.030734848 -0.0675639 0.01009172 -0.020198375
-0.08762542 -0.07215107 0.06655378 0.061886217 0.09740333 0.0022476849 0.024279248 -0.030988263
0.050961383 0.105867684 -0.0482812 0.013859114 -0.097660966 -0.0105944965 0.012628741 -0.12148077
-0.0066164057 -0.01868065 0.040367074 0.06773741 0.0470813 0.017164987 0.026902664 0.09853439
-0.063333854 -0.08596224 -0.05178808 -0.008061146 -0.017137304 -0.11156018 -0.023479857 0.03492976
-0.029305149 -0.0556832 0.034731727 0.075704664 -0.077752195 0.09224941 -0.10207302 0.031915817
0.07589938 0.030230705 -0.029605165 0.06372707 -0.02614086 0.1096429 0.03769478 -0.016429162
-0.06529603 -0.041160006 -0.08430126 0.10651328 -0.03304269 -0.08289385 0.00752522 0.09000078
-0.041498113 -0.042612232 0.08689468 -0.052636206 -0.020256765 0.058003724 -0.08513686 -0.0921759
-0.02488711 0.07283504 0.07536073 -0.0652388 -0.09182288 -0.087886535 0.023476014 -0.08022576
-0.10858313 -0.012669094 0.004662381 -0.041180592 -0.013920543 0.053112403 0.034910455 -0.09037907
-0.11234691 0.064979956 -0.10487191 -0.051802948 0.06631909 0.08174875 -0.028960465 -0.0033455975
-0.036425546 0.09843847 -0.095904656 -0.004199162 -0.039632726 0.0025374696 0.030012583 0.046856664
0.09266811 -0.06895343 0.10370542 -0.10171989 0.006194061 -0.067768104 -0.120948575 0.047625396
0.08397185 0.08852789 -0.05915615 -0.04829574 0.10378565 0.10171174 -0.10136301 -0.09787657
-0.053641323 -0.103661604 -0.00820305 -0.017863194 -0.039617088 -0.04793796 0.07307247 0.07539129
-0.009921825 0.104231834 0.105484344 0.10319829 0.057390273 0.015246868 0.031504918 -0.05578741
-0.020598428 -0.08930238 -0.06211069 -0.09939927 -0.07287549 -0.0059818923 0.0034348725 0.0047636344
0.08993335 0.071216635 0.08778685 0.03390503 -0.11006574 -0.0012769256 0.00063379225 0.11143998
0.06715216 0.06661585 -0.05222185 0.124302134 0.026662536 0.031182485 0.11189189 0.058328364
0.060846984 0.00065184187 -0.033989493 -0.03955791 -0.055020988 -0.06495108 -0.11109959 0.08066581
-0.02244938 -0.08552074 0.068476565 -0.0035421005 0.028870748 -0.04255887 -0.057779096 0.06518651
-0.06827751 0.013628335 0.03417257 0.07050642 0.07365878 -0.08247249 0.09910943 -0.029894907
0.023413522 -0.10483894 -0.0933481 0.09159022 -0.10191275 -0.017294865 0.05986288 -0.00902142
0.101779155 0.08703415 -0.010713679 0.007360575 -0.0701508 -0.01743796 0.024757098 -0.07940466
0.09568897 0.014340012 -0.046395674 0.079763085 0.045179587 -0.05561069 -0.016589236 -0.08343156
0.07879506 -0.0287958 -0.045262303 0.044892557 0.022114443 -0.08849909 -0.034986593 -0.104142435
0.07715849 0.05911121 -0.12058757 -0.04713544 0.040304743 -0.08172922 0.07086009 -0.061263166
-0.083930954 0.057957407 -0.111098334 -0.019804846 -0.060834922 -0.0879058 0.026727002 -0.02083765
-0.08669164 -0.032754555 0.03943087 0.03232071 0.09985039 -0.105493404 0.009905086 0.054778226

cnn_model.0.bias f4 [6]
00000000: 057d cbbc 9465 bc3c c996 003d 5adb febb
00000010: df29 a8bc 70fd c73d
-0.024839887 0.022997655 0.0313938 -0.0077776136 -0.020527778 0.09765136

cnn_model.3.weight f4 [16, 6, 5, 5]
00000000: d687 27bc a628 e4bc eaa1 ecbc 156a 98bd
00000010: 8039 ec3c 545d 2c3d 0b5a f3ba ba55 243d
00000020: 8777 cdbc 59e1 143d 94b3 263d d7b5 643d
00000030: d793 8bbc 8745 793d 1df1 b83d aa16 a23d
00000040: 3e27 73bd 6396 c33b 4669 9e3d bcf6 a63b
00000050: 73c5 013c ef94 09bd d008 913d d69d 523d
00000060: 9753 2ebd 55e5 30bd 4c29 ad3c 4e60 1a3d
00000070: f27f 643d 3578 9fbd b474 583d b338 2fbd
00000080: 2bc2 aabd 091b b6bd 8999 94bd a8fc 01bc
00000090: 0c55 93bd b080 273b 909e 443d c0d4 17bc
000000a0: ebfc 023d a86e 7bbd 23dc 323d ab6f 1b3d
000000b0: 87b8 6ebc 9aca b2bd f0f0 2e3d 6518 c9bc
000000c0: 5d48 d2bc a032 0bbc 3183 84bd d4a5 95bd
000000d0: f69d 673d 03f6 9cbd 2ce6 883d 3e68 b3bb
000000e0: f7ec efbc 8cf5 19bd 416f 89bb a057 813d
000000f0: 3dd6 993d 642a e73c cf7b 113d ef21 003d
00000100: 1a23 1d3c 30ce e03c 21fc 4a3c 5901 94bd
00000110: 5d81 093d 7b95 093d 7168 3dbc b524 a5bd
00000120: a947 23bd 37f8 583d aa6d 6ebd ff9f 263c
00000130: 4e37 1f3d 1d16 753d 8b9c ae3d 95f7 26bd
00000140: c345 53bd 8068 c93c e75e 22bd 880d 18bd
00000150: ae0b 19bd dd13 bbbc 443e c63c fc6b 493c
00000160: d30d 383b 2404 d03c 8eb5 163c a1ea 853d
00000170: 3c72 973d 7998 a33c b381 2fbc 87a2 3f3d
00000180: ac34 53bd 1201 6f3d 87e6 9bbd 9be1 a83d
00000190: 07f0 a1bd 602a 87bd 9a3c c43c 2183 3e3d
000001a0: 8ca3 aabd 1d54 603d 9691 ffbc fde7 573d
000001b0: 05a2 7abd f503 a3bd 4fab 853d 1060 173d
000001c0: 4071 b1bd 5288 81bd 757f b2bd d90e 5f3d
000001d0: ac7e 87bd 9e80 243d dadc 77bd 3ec2 2f3d
000001e0: 18e0 3a3c 7db1 42bd 65b7 4c3d 6fbc 813c
000001f0: 99c2 5e3c 4f21 243d 4e94 91bd 3254 b93d
00000200: a502 443d f863 1f3d 013e 013d a488 743c
00000210: 68b6 62bd c1fd b03a f14e 2abd 3137 6b3d
00000220: bf9c 4b3d 6973 143d 78df 423d ffb0 a5bc
00000230: cee9 1ebd c6a2 b63c 3e32 d83d 5378 a33d
00000240: 2a27 81bc c774 7c3d 7516 f83c 30c0 b23d
00000250: 74be 533d f9f3 63bc ef4a 5abd a9a6 6ebc
00000260: 5b0c 12bc 7ec9 4039 01e3 5a3c a2b8 6f3d
00000270: dc7b bdbb 54d5 43bd 430a 27bd 3cfc 6e3c
00000280: 0360 e0bc 1c6a 48bd 5f15 89bd bc7b 903c
00000290: 1396 22bd b0f3 42bd 1080 95bc 8a77 1b3d
000002a0: 9d9f 58bd aa88 9d3b cb86 8cbd 0a3d 3f3d
000002b0: 59b3 a33d e927 d9bb 0fe6 1bbd 9b24 773d
000002c0: 82f7 8f3d 8338 423d 8571 9fbc 98d5 b93d
000002d0: d178 c93c e6a8 efbb 9013 8dbd 1e9b ae3d
000002e0: 6924 2c3c 3461 443d 62c2 3fbd 1300 4fbd
000002f0: adda 86bd 8bf3 9f3c bae9 f8bc 3aa2 a93d
00000300: 9174 ee3c 392d c8bc 27d5 d13c 2c6e bb3b
00000310: 40aa 24bd 7d61 ca3c c0e8 863d 6dd2 9abb
00000320: c670 25bd eecd 223d 1624 853d 8ac7 9fbc
00000330: ff80 443d 9d75 453d 6c2c 373a 8ee6 9c3d
00000340: 41a6 0f3c 40e5 3cbd 0a16 eeba 619e 24bd
00000350: 4b7a 70bd c8bb 28bd f359 8dbd bde3 3c3c
00000360: 516b 82bc a6c0 6cbd 1568 86bb 49a9 92bd
00000370: 54b1 62bd eb37 c0bb c992 3cbd 7fc5 5fbb
00000380: 78c3 d93b 2676 823d ef2f 83bc 8fe2 133b
00000390: a346 273d f1df 4c3d 8c73 3cbc 3bda 8fbd
000003a0: 33ce da3b f4e7 efbc 4a9b 8e3c 920f 5d3c
000003b0: ff66 73bc 7e9e 96bd 2f23 4d3d 2420 a5bc
000003c0: e091 c03c 3a2b 85bd 506d 9cbd 4a26 e53c
000003d0: 7d0f 083d 74fe dfbc 3258 933d cf20 eabb
000003e0: 9a16 d63c ffd8 5c3d ebe0 4a3d 5dee b1ba
000003f0: 7f7e 243c 54cb 433d f0a3 b33d 2bd2 88bd
-0.010225257 -0.027851414 -0.0288858 -0.074421085 0.028836012 0.042081192 -0.0018566264 0.040120818
-0.02508141 0.03634772 0.040698603 0.05583748 -0.017038269 0.060857322 0.09030364 0.07914479
-0.059363596 0.005968855 0.07734923 0.005095331 0.007920611 -0.0335893 0.07081759 0.051420055
-0.042560186 -0.043187458 0.021137856 0.0376895 0.05578608 -0.077865995 0.05284567 -0.042778682
-0.08337816 -0.08891875 -0.07255847 -0.007933773 -0.07193956 0.0025558881 0.04800278 -0.009267032
0.031979483 -0.061384827 0.04366697 0.03794829 -0.014570362 -0.087300494 0.042710245 -0.024547765
-0.025669271 -0.008495957 -0.06470335 -0.0730702 0.056547128 -0.076641105 0.06684527 -0.005475073
-0.029287798 -0.037587687 -0.0041941707 0.06315541 0.07511566 0.028218456 0.035518464 0.03128236
0.009590888 0.027442068 0.012389214 -0.072268195 0.033570636 0.03358982 -0.011560545 -0.08063642
-0.039863262 0.05297109 -0.058210053 0.010169982 0.038871102 0.059835542 0.08525952 -0.040763456
-0.0515802 0.024585962 -0.039641287 -0.03712228 -0.037364654 -0.02283662 0.024199612 0.012293812
0.0028084412 0.0253926 0.009198559 0.065388925 0.07394835 0.019970166 -0.010712075 0.046785858
-0.051563904 0.05835063 -0.07612329 0.08246156 -0.0790711 -0.06599879 0.023954678 0.046511773
-0.08331975 0.054767717 -0.03119735 0.052711476 -0.06118967 -0.07959739 0.06526815 0.036956847
-0.08664179 -0.06324829 -0.08715717 0.05445752 -0.066159576 0.04016172 -0.060513355 0.042909853
0.011405967 -0.047532547 0.049979586 0.015836922 0.0135962 0.040070828 -0.07108365 0.09049262
0.047854085 0.038913697 0.031553272 0.014925156 -0.055349737 0.0013503359 -0.04157919 0.05742568
0.04971003 0.036242876 0.047576398 -0.020226 -0.038797192 0.022294413 0.10556458 0.079819344
-0.015765745 0.061634805 0.030284146 0.08728063 0.051695302 -0.013913148 -0.05329412 -0.014566102
-0.008914079 0.00018385609 0.013359786 0.05852569 -0.0057825875 -0.047810867 -0.04078127 0.014586505
-0.027389532 -0.04892932 -0.06693529 0.017637126 -0.039693903 -0.04759568 -0.018249542 0.0379558
-0.052886594 0.0048075514 -0.06861647 0.04668907 0.07993192 -0.006627072 -0.038061198 0.060337644
0.0702963 0.047417175 -0.01946331 0.09073943 0.024593743 -0.0073138354 -0.06888497 0.0852568
0.010506728 0.047944263 -0.046816237 -0.05053718 -0.06584678 0.01952531 -0.030384887 0.082828954
0.029108318 -0.024435626 0.025614334 0.0057199206 -0.040201426 0.02470469 0.06587362 -0.0047247917
-0.040390752 0.03974717 0.065010235 -0.019504327 0.047974583 0.048207868 0.00069875154 0.07661162
0.008767665 -0.046117067 -0.0018164527 -0.040190104 -0.058710378 -0.041194707 -0.06901922 0.011528906
-0.015920313 -0.05780091 -0.004101763 -0.07161195 -0.055344895 -0.005866041 -0.046038423 -0.0034144816
0.006645616 0.06370191 -0.016014067 0.002256546 0.04083885 0.050018255 -0.011502158 -0.07024046
0.006677413 -0.029285409 0.017408032 0.013492482 -0.014856099 -0.07354449 0.05008238 -0.020156927
0.023507059 -0.065023854 -0.07638037 0.02797236 0.033217896 -0.027343012 0.07194556 -0.0071450244
0.026133824 0.05391788 0.049530905 -0.0013575066 0.010039925 0.04780133 0.08771503 -0.06680711

cnn_model.3.bias f4 [16]
00000000: 7671 de3c 08f2 b43d 5d58 943d 16e7 303d
00000010: 7b29 91bb 2edd 09bc 68c3 323c 7264 1bbd
00000020: ffba d53c d379 2a3d e3cc a8bd a459 d9bb
00000030: 83e9 77bc 80c5 11bd b1fe 573d 4ead ec3b
0.027153712 0.08835226 0.072434165 0.04318913 -0.0044299937 -0.00841455 0.010910846 -0.03793759
0.026090143 0.041620087 -0.08242204 -0.0066330004 -0.015131357 -0.03558874 0.052733127 0.007222808

fc_model.0.weight f4 [120, 256]
00000000: 319c 23bd 16e1 2abd 54df 893c 4b1c 433c
00000010: 6e75 0c3d 9ecf 49bc abf6 02bd e24a 03bd
00000020: 1835 8d3d a4de c4bc 1598 963c b091 003d
00000030: bf3e 54bd f61f 19bc e5c7 5c3c af4c 233d
00000040: 93e8 9b3d f740 67bd 75b1 20bd be37 38bd
00000050: e3dc dfbc 4835 57bd 9cd6 b23c 5a7f 623d
00000060: 4f24 733d 026e 94bd 3df9 2a3d 4a69 463d
00000070: 3f2e 0dbd 5834 643d f870 67bd b4a2 b0bc
00000080: 3748 68bd b6be 20ba 9c12 6dbd 8712 4ebd
00000090: 18c3 323c f30b debc a8d6 31bd 86cb 10bd
000000a0: 5ea5 3a3c e8bf 0e3d a81c 3f3d 3991 ca3c
000000b0: 15f3 f93c 6ee5 8a3c 0e2c 393d 0dcf 8dbc
000000c0: 7719 633d e082 4f3d d7e7 54bd ce37 543d
000000d0: 61f3 2cbc 6050 d9bc b289 ae3c 3530 85bc
000000e0: b415 f13c dea5 0eba d2fb 853b f40e 0bbd
000000f0: 73a5 e93c 1a2b 283c aa79 82bd 2875 f1bc
00000100: c164 143c a034 0fbd 69ee bd3b a888 143d
00000110: 0efd 173c 7b0f 8b3c de36 ebbc 72e3 76bb
00000120: bdb6 613d ee04 db3c 96b4 45bd 2702 953c
00000130: 47fd 893d c180 283d 651b 30bd 6c6b 823d
00000140: 9404 4fbc f0e1 713d 0b53 7c3d 1809 883c
00000150: bd27 f6bc 33be 02bd 52b6 ed3c 0fb3 0d3d
00000160: 3ed1 313d d88d 8bbd a7ab 95bd 638b 6b3d
00000170: 7159 9d3d 5856 7d3c 9c64 acbc 09e1 37bd
00000180: fcea 163d d7fc 51bc 8915 6dbd a3d5 e4bc
00000190: 3850 4fbc c8ed 503d d898 dabc 34fc c1bc
000001a0: 6a5e d9bc 3a8b 7f3d cf0c 5a3d 0c69 583d
000001b0: fe24 62bd 249c d13c a0d5 f5bc 139f 9b3c
000001c0: 1a5e 6ebd cd15 59bd 638a 9abc c5fa 86bd
000001d0: b97a 693d cec9 e93b 3a13 28bd c366 5dbb
000001e0: 2072 d93b 3840 6cbd a060 c3bb 69ba 083d
000001f0: b66d ccbb 7c67 d73c 7d87 953c efd5 983c
00000200: 72fe b03c 2a11 4abd d2ba 443d 7a70 05bc
00000210: ab93 65bd 8c83 ba3c dc39 513d 248b a33c
00000220: 0c89 563d ffd4 723d fec2 623d 287b d2bb
00000230: 8eb7 4a3d 6520 4dbd ccaf 75bc 82ce eb3c
00000240: a041 713d f846 263d 6296 243d a560 c63c
00000250: cfb9 02bd 150a 593d 75ea e33c 6e27 2dbc
00000260: 8400 293d 6e74 903c 688b 433c 77e7 0e3d
00000270: a61d 723d 1e63 5d3d 338a 40bd d7d9 21bd
00000280: f8be 1b3d f3d8 eb3c 5499 c13c 43fb a13c
00000290: fd9e 2ebd be5f 09bd 1dea 81bd 415e 1e3c
000002a0: 5aa5 9b3d 01d0 89bd 74a3 263c 2e63 0ebd
000002b0: 88a2 a13b 80c0 4e3d d1d3 0ebc 47c0 4c3a
000002c0: 4d20 463d c32c 2c39 2b98 283d 5b9a d6bc
000002d0: cc2e 0e3d 5438 a5bc ecc1 b6ba c195 1bbd
000002e0: db4f 8abc a10d 433a 986f 25bd 45b8 dd3b
000002f0: f671 ff3c d55c 6fbc 7de9 2a3d 2a42 d83b
00000300: 132c 613d a353 173d 8e4e 8bbd 8258 e0bb
00000310: 2b82 28bc 2d11 14bd 0204 b23a adcb 4d3d
00000320: ba98 99bb 3a80 5f3d 9149 8c3d 25a2 eabc
00000330: ecf5 7abd b714 c9bb a433 09bd d03a f1bc
00000340: a835 1fbd b569 6a3d 261d 00bd 47a7 17bd
00000350: e0f8 443d 1bfb 103d 2053 31bc 78a0 503d
00000360: 32a7 f4bc 95d2 9abc 41ba ffbc 177d b1bc
00000370: f571 c73c 87cf 143d d5b3 8ebc 0ce3 06bd
00000380: 9329 d7bc f7ec 0e3d 6800 8c3d 696f 40bd
00000390: 8266 4dbd 7f4d 5cba 3efb 55bc e52d 1abd
000003a0: 1e58 493d 45de 703d 2505 543d 6661 c9ba
000003b0: 3055 9a3c 6d64 76bc ab2d 83bd d81b 05bd
000003c0: d68f 0bbd a06e dd3c 6087 183d 57e0 543c
000003d0: cc7c babc 046b 64bd 6f9a 49bc c53c 023d
000003e0: e4e4 883d a43e db3c d840 903d 59fb 093d
000003f0: 1bc9 d5bc ac8d 413c 44d5 5e3d c9f5 b9bc
-0.039943878 -0.041718565 0.016830124 0.011908601 0.034291677 -0.012317566 -0.031973522 -0.032053836
0.068948925 -0.024031945 0.018383065 0.03138894 -0.05181765 -0.009345999 0.013475393 0.039868053
0.076127194 -0.05645844 -0.039231736 -0.044975035 -0.027327007 -0.052541047 0.02183085 0.055297233
0.0593608 -0.07247545 0.0417416 0.048440255 -0.03446793 0.05571398 -0.05650422 -0.021561958
-0.056709494 -0.0006131934 -0.057879075 -0.050310638 0.010910772 -0.027105307 -0.043417603 -0.035350345
0.011391966 0.034850985 0.046658188 0.02472745 0.030511418 0.016955104 0.04520803 -0.017310644
0.055444207 0.05066192 -0.051978912 0.051811032 -0.010556073 -0.026527584 0.021305893 -0.016258338
0.029429294 -0.0005441586 0.004088857 -0.033949807 0.028521275 0.010264182 -0.06370862 -0.02947481
0.009057225 -0.034962296 0.005796243 0.036263138 0.0092766415 0.016975155 -0.028712686 -0.003767219
0.055105913 0.02673575 -0.048267923 0.018189503 0.06737762 0.041138414 -0.042994875 0.06368145
-0.012635369 0.05905336 0.061602633 0.016605899 -0.030048246 -0.03191967 0.029017601 0.03459459
0.04341244 -0.06814164 -0.07308131 0.057505976 0.07683075 0.0154624805 -0.021044068 -0.044892345
0.036845192 -0.012816629 -0.057881866 -0.027933901 -0.012653403 0.051008016 -0.02668421 -0.02367983
-0.026534278 0.062388636 0.05323487 0.052834556 -0.05521106 0.025587149 -0.03000909 0.018996751
-0.05819521 -0.052999306 -0.018864816 -0.06590799 0.057001803 0.0071346527 -0.04103396 -0.0033783175
0.006635919 -0.05767843 -0.0059624463 0.0333809 -0.0062386645 0.026294462 0.018253082 0.018656699
0.021605704 -0.049332775 0.04802973 -0.008144492 -0.05604903 0.022767805 0.05108057 0.019963808
0.05237679 0.05928516 0.05536174 -0.006423373 0.049491458 -0.050079722 -0.0149955265 0.028784994
0.058900476 0.040595025 0.04018248 0.024216006 -0.031915482 0.05298813 0.027821759 -0.010568483
0.041260257 0.017633643 0.0119350925 0.03488871 0.059110306 0.054049604 -0.047006797 -0.03951439
0.03802392 0.028789973 0.023632683 0.019773131 -0.04263209 -0.033538572 -0.06343482 0.009666027
0.07599898 -0.06729127 0.010170806 -0.034762554 0.0049327053 0.05047655 -0.008717493 0.0007810634
0.04837065 0.00016419873 0.041160744 -0.02619665 0.034712598 -0.02016846 -0.0013943291 -0.037984613
-0.016883781 0.00074406905 -0.040389627 0.0067663514 0.03118227 -0.014609535 0.041726578 0.0065996842
0.054973673 0.036944997 -0.068020925 -0.0068464885 -0.010284941 -0.036149193 0.0013581517 0.05024307
-0.004687396 0.054565646 0.06849969 -0.02864177 -0.061269686 -0.0061365026 -0.033496514 -0.02944699
-0.03886953 0.057229716 -0.031277798 -0.037024762 0.04808891 0.035395723 -0.010823041 0.050934285
-0.029864881 -0.018899241 -0.031216742 -0.021666093 0.024346331 0.036330726 -0.017419735 -0.032931373
-0.026264941 0.034893956 0.06836015 -0.04698125 -0.050146587 -0.0008403882 -0.013060389 -0.037641425
0.0491563 0.058805723 0.05176272 -0.001536411 0.018839449 -0.015038592 -0.06405195 -0.032497257
-0.03407272 0.02703029 0.03723848 0.01299294 -0.022764586 -0.05576612 -0.012304886 0.031796236
0.066842824 0.026763268 0.07043618 0.03368697 -0.026096871 0.011813562 0.054402605 -0.022700207

fc_model.0.bias f4 [120]
00000000: 1c8b 583d 4dbf cf3c 1068 ba3c b9f7 a5bc
00000010: 120f b6bc 23a1 973b bbdd 3cbd 03ec 1dbd
00000020: 1738 72bc 6810 383d 5e10 533c 2758 02bd
00000030: 1fcb 51bd 4b28 a93b 824c d53c 1f1e 383d
00000040: 83de 063b 25f0 08bd 91d1 753d 6f3f cc3c
00000050: 8101 24bd 89ef 1ebc 1742 593c 4f15 87bc
00000060: b287 503b b6a8 1c3d a052 14bd 33b9 3a3a
00000070: ef98 713c 9d6a 263d 6f9f 5639 97d8 1d3c
00000080: d4fa 40bc 60c4 13bc d83a 193d ae1c 0abd
00000090: cbd5 01bd 4b66 813d 84a7 71bd c2c5 993a
000000a0: c49f 85bc 4b80 4b3c 702f 84bc 2064 29bd
000000b0: 8e03 d63c f0c9 083c 0780 35bb 23d1 fc3c
000000c0: 1780 0e3d ea69 c23c 7669 80bc 671d c13c
000000d0: a237 3c3d 95a8 b23c 52b1 123c 5e68 a23c
000000e0: ccc9 73bd b08f 303d d8f0 533d cacc c93c
000000f0: a1ed 3dbd a4da 4dbc d2de 173d ce14 1bbc
00000100: 73b3 27bd a0df 8a3b 4920 2d3d 8264 113d
00000110: f078 013d 4744 7fbd 104e 023d 80ae 01bd
00000120: 8092 483d 721c 4dbc 0101 8a3c e227 403d
00000130: f943 35bc 8404 90ba 10e8 073c b1d7 e73c
00000140: 02e9 5bbd fe5a 733d 155c c9bc 1920 43bd
00000150: 0645 96bc f4fa 57bd 02ac 683d adcc 2c3c
00000160: a720 09bc e03e e0bb 3bad d3bc a2a1 15bd
00000170: ca28 be3a a8fe 3e3c eafb 1e3d 4806 74bc
00000180: 1016 48bd 34de 1fbd 057a 9dbc 1b4a 223d
00000190: ec5a 3cbc 6db7 5a3d 9901 03bd 8ed8 6c3d
000001a0: b913 b63c 031c d6bb 27f7 e03b 8577 1d3c
000001b0: 1adf 59bd 23fc a83c e1ed 96bc 3acc 0c3d
000001c0: bb96 1cbd 47c7 413c ce39 823d 42ec d23c
000001d0: 36e5 723c b7d6 83bc 77f9 a7bc 5ce4 2a3d
0.05286704 0.025359774 0.022754699 -0.020259725 -0.022223983 0.0046273633 -0.046109896 -0.038555156
-0.014783881 0.04493752 0.01288232 -0.03182235 -0.051219102 0.005162274 0.026037458 0.0449506
0.0020579405 -0.033432145 0.06001431 0.024932591 -0.040040497 -0.009700664 0.013260386 -0.016489653
0.0031819162 0.038246833 -0.03621161 0.0007122934 0.014745935 0.040629018 0.00020468024 0.009634159
-0.011778552 -0.009018987 0.037409633 -0.033718757 -0.03169803 0.06318339 -0.058997646 0.001173191
-0.016311534 0.012420724 -0.016135901 -0.041355252 0.026124742 0.008348927 -0.0027694718 0.030861443
0.034790125 0.023732144 -0.015675288 0.02357359 0.045951493 0.021808902 0.008953409 0.019825157
-0.05951862 0.04310578 0.05174336 0.024633784 -0.0463692 -0.012564335 0.037077732 -0.009465409
-0.04094262 0.004238084 0.042267118 0.035496242 0.031609476 -0.062320974 0.031812727 -0.031660557
0.04896784 -0.012518989 0.016846182 0.046913035 -0.011063569 -0.0010987674 0.008295074 0.028301092
-0.05368901 0.05941295 -0.024580041 -0.047638033 -0.01834346 -0.052729562 0.056804664 0.010546845
-0.008369601 -0.006843433 -0.025839439 -0.0365311 0.0014508006 0.0116573945 0.038814463 -0.014894076
-0.048849165 -0.03903027 -0.019223223 0.039621454 -0.011496287 0.053397585 -0.031983946 0.05782371
0.022226201 -0.006534101 0.0068654004 0.009611015 -0.05319128 0.02062804 -0.018423976 0.034374453
-0.038229685 0.011827297 0.063586816 0.025747422 0.014825156 -0.016093595 -0.020504696 0.041721687

fc_model.2.weight f4 [84, 120]
00000000: 5423 653d a82e 0a3c 8639 033d 2d1b b1bd
00000010: d088 b33c 0230 ffbc c083 233b c44a 0ebd
00000020: d877 253d 706d 2c3d e878 8fbc 986d 223d
00000030: d47e debc 682f ccbc 480a 3f3d c4ae ac3d
00000040: 5013 b43d b8ab 68bd e08d 15bd 80c3 1d3a
00000050: 48ec 9ebc c8b9 5d3c 9a21 943d 4473 983d
00000060: da93 9a3d c88d 62bd f4fd a0bd 421c a5bd
00000070: e400 b2bd 2d4e a2bd d056 42bc 6952 69bd
00000080: abd0 afbd 009a 67bb 8064 7ebc c760 31bd
00000090: aa81 8dbd 830c 92bd c0e8 bcbc d019 7e3c
000000a0: a81b b2bd a127 b3bd 3046 a93c 2ea0 78bd
000000b0: 108b 683c b08f 123d 9656 22bd 8045 c3ba
000000c0: b8cf 90bd 0037 b639 b525 0bbd fcd3 663d
000000d0: 3b81 8abd b92f 07bd 61e7 49bd 7877 0cbd
000000e0: 9df5 82bd 7323 a8bd 301b f83b 20fb a63c
000000f0: 20e2 233d 0c36 403d 45b6 99bd 70f7 d9bb
00000100: 340f b73d 3e74 0dbd e428 a3bc 1c6e aebd
00000110: 392f 9ebd 48a2 223d 2813 3c3d 5936 56bd
00000120: 42e8 a2bd c17f b3bd 0090 5f3d e964 27bd
00000130: 0f7b 23bd 529d 17bd 5fb4 babd 601f 923d
00000140: 9438 cfbc a61c f8bc 1c35 503d dc99 ee3c
00000150: 64b5 cbbc 60cd 213d d027 c73b 5014 c8bc
00000160: b4cc e5bc e0ec 79bb b75e 24bd 46d6 843d
00000170: 8431 743d 7f6d 61bd 1edf a33d 7016 55bd
00000180: 900c 0b3d 641c 233d dfb0 7bbd 4837 a73d
00000190: 6066 04bb 1c1f 303d e45e 5c3d 0af0 a0bd
000001a0: ec25 853c 1614 8ebd 3611 a23d 888a 003d
000001b0: 0089 42bb d4e2 99bc 2c1f 703d 6c24 803d
000001c0: a8f1 5e3c 8387 32bd d7a1 8bbd cebd 9fbd
000001d0: 3ddc 85bd 6cd2 b0bc a82b 173d f0ea b2bc
000001e0: 9918 b0bc 03b0 a8bc 614e 12bc ca75 3c3c
000001f0: 9a51 943c a050 c93d f812 24bd bfb5 183c
00000200: d734 b13c 8fc1 57bd 2407 8c3d 2ecf 573d
00000210: 81f7 773c 4610 82bd e53c 42bd a9f4 653c
00000220: 69a4 333c 72c3 4d3d 63db 86bd 858f a93d
00000230: 3911 dc3c 7d5f c1bd 854a b2bd 8442 9dbc
00000240: 72d8 943d 538a 42bc 94af 1bbd e7a4 463d
00000250: 9e52 c13b e3fb a3bd 3740 053d ea98 213d
00000260: eef6 aebc 5fb3 a73d 03ad 9ebd 003e a03d
00000270: a809 2cbd b214 71bd 8e1e 1abd cc62 643d
00000280: 5acf 653c ea0d d6bd bd0e ab3d 58e7 6f3d
00000290: 02ae 3abb b690 afbd 1c96 a6bd e7e1 f53b
000002a0: 1481 08bc 1361 5f3d 5d96 033d 65f9 283d
000002b0: 0f84 753d 309e db3c 1c1a 0e3d 8a00 29bd
000002c0: 40f6 873d ef58 a8bd c6aa a53c 00b7 9f3c
000002d0: 84f1 b3bd 14c1 a4bd 9532 27bd 500a 90bd
000002e0: 8ad9 983d b7b0 583c a1c5 4e3d 13fb b33c
000002f0: 7959 80bd fd51 2d3d 2f5a f1bc 8d0e 6dbc
00000300: d0ea 463c 60ea 893c 60ef 7c3c 5ff4 1bbd
00000310: d808 a33c f5ef 563d 1389 113d 5d16 33bc
00000320: 4b76 003d d687 af3d f42e 29bc 4e18 933c
00000330: 6974 983d e567 86bd 0ae0 9dbd f7c2 b03d
00000340: e96c dc3b 3e07 953d 4cb0 4f3c d534 943d
00000350: d042 05bd caa5 9b3d 3e36 15bd 083d b1bd
00000360: 5a45 b9bc 20ce a23c 0b72 59bd 4a66 a03d
00000370: 6c8c a33c d3f8 38ba cf54 3fbd 1cb0 80bc
00000380: df48 14bc 3039 6c3c 4d80 32bc 9bb3 b23c
00000390: e570 82bd de97 a5bd d9ef 6b3d 598e 963d
000003a0: 3a8a a5bc e6b8 a83d 4c13 fabc 79c0 7cbd
000003b0: 40ad a13d 1aca 63bd 9264 b2bd 5396 05bd
000003c0: 8cfa c63d 1452 33bd 9b07 81bc ff0b 943d
000003d0: 8723 82bb 4ecf 98bc 60c5 e93b be0b 473d
000003e0: 319b b1bd ab6c 3cbd f80b c93a ebde 6fbd
000003f0: 8cac ac3c ce41 5bbd 72bc 923d a55b a1bd
0.055941895 0.008433975 0.03203728 -0.086477615 0.021915823 -0.031150822 0.0024950355 -0.03473927
0.040397495 0.042096555 -0.017513707 0.039655298 -0.027160086 -0.024924949 0.046640664 0.084317714
0.08792746 -0.05680439 -0.036512256 0.00060182065 -0.019399777 0.013533063 0.072329715 0.0744386
0.07547732 -0.055310994 -0.07860938 -0.080620304 -0.08691576 -0.07925067 -0.011861518 -0.056963358
-0.08584722 -0.0035339594 -0.015526891 -0.043305185 -0.06909497 -0.07131293 -0.023060203 0.015509084
-0.08696681 -0.08747793 0.02066335 -0.060699634 0.014193311 0.035781562 -0.039633356 -0.0014898032
-0.07070869 0.00034754723 -0.033971507 0.056354508 -0.0676293 -0.033004496 -0.049292926 -0.03429362
-0.06394503 -0.082098864 0.0075716004 0.020383418 0.04001057 0.046926543 -0.07505468 -0.0066518113
0.08938447 -0.034534685 -0.01991696 -0.085170954 -0.07723851 0.039705545 0.045916706 -0.052297924
-0.07954456 -0.087646015 0.05458069 -0.04086772 -0.03991228 -0.037015267 -0.09116434 0.071348906
-0.025295533 -0.030287098 0.0508319 0.0291261 -0.024866767 0.0395025 0.006077744 -0.024423748
-0.028051712 -0.0038135573 -0.04012939 0.06486182 0.059617534 -0.055036064 0.080015406 -0.05202335
0.033947527 0.039821997 -0.061447974 0.08164841 -0.0020202622 0.04299842 0.053801432 -0.07858284
0.016253434 -0.06937425 0.07913439 0.031382114 -0.002968371 -0.018784918 0.058623478 0.06256947
0.01360742 -0.043586265 -0.06817978 -0.07799874 -0.06536148 -0.021584712 0.03690687 -0.021840543
-0.021496104 -0.020591741 -0.00892982 0.0115026925 0.018105317 0.09829831 -0.040057153 0.009320675
0.021631641 -0.052674826 0.068372995 0.052687816 0.015134693 -0.0635076 -0.047421355 0.014035382
0.010964491 0.05023522 -0.065848134 0.08279327 0.026863681 -0.09442041 -0.0870562 -0.019196756
0.07267846 -0.011873799 -0.03800924 0.048497107 0.0058997413 -0.08007028 0.032531943 0.03945247
-0.02135798 0.08188509 -0.07747843 0.078243256 -0.042001396 -0.058857627 -0.037626795 0.055758283
0.014026487 -0.10451873 0.083524205 0.058570236 -0.0028485064 -0.08572523 -0.081341 0.0075037363
-0.008331556 0.054535937 0.03212582 0.041253466 0.059940394 0.026808828 0.03469287 -0.04126028
0.06638765 -0.08220088 0.020223033 0.01949644 -0.087863 -0.08044639 -0.040819723 -0.07033217
0.07463367 0.013225726 0.050481442 0.021970307 -0.062670656 0.04231452 -0.029461948 -0.014468801
0.012140945 0.016835392 0.015437931 -0.038074847 0.019901678 0.052474935 0.035531115 -0.010930625
0.031362813 0.085708305 -0.010326136 0.017955925 0.074440785 -0.06562785 -0.07708748 0.086309366
0.0067268503 0.07276772 0.01267631 0.072366394 -0.03253442 0.07599981 -0.036428683 -0.08654219
-0.022616077 0.019873679 -0.053087275 0.0783201 0.01996442 -0.00070561207 -0.04671174 -0.015708975
-0.009050577 0.014417931 -0.010894847 0.021814158 -0.06369189 -0.08085607 0.057601783 0.073513694
-0.020207513 0.082383916 -0.03052678 -0.061706994 0.07894373 -0.05561266 -0.087105885 -0.032614063
0.09715757 -0.043779448 -0.015750697 0.072288506 -0.0039715203 -0.018653538 0.0071341246 0.048595183
-0.086721785 -0.04600207 0.001533865 -0.0585622 0.02107837 -0.053529553 0.07164849 -0.07878808

fc_model.2.bias f4 [84]
00000000: 310b 90bd 75d9 9dbd 3139 3ebd 7bc6 bdba
00000010: e673 8b3d 682d 3fbb 4afe ac3d 1fb9 3fbc
00000020: de83 d2bc c666 483d bcb0 bfbd 97fa 603c
00000030: b4c9 3c3d 6aa5 17bd f24a 99bd 7ac0 9fbd
00000040: 5694 f6bc 186f 43bb 306a 083d 47e4 803d
00000050: 4d0b 883d 8c7d ae3d 4c73 123d ad6b 923b
00000060: 9a98 9f3d be6a 393d 4a3a aa3d 4e11 b2bd
00000070: fa0d a63d baf3 243c 649b 8cbd 0995 52bc
00000080: 02a8 1bbc 1592 59bc 3c51 d4bc b3ec a8bd
00000090: ce3a 6cbb 8fea 923d cc51 113d 8054 84bd
000000a0: b843 843d 67fe bdbd c86d 07bd 31c7 023d
000000b0: 4b31 17bd 581e 343d 13e4 ae3c 77dc cb3d
000000c0: ec1e 7c3d 6030 aabd 182a 7d3d 1072 383d
000000d0: 4a26 f03c a2ec 70bd 760c 753b 1155 83bd
000000e0: e4fa 9cbd 33d0 833d 8df3 843d 891c 953d
000000f0: d4fd cabc b330 2c3d a8f2 333d 0f3c 963d
00000100: 0e77 803c dd88 853d a7a1 323d d025 423d
00000110: d613 e03b a901 be3d af3a 783d 127d 1c38
00000120: 11fb bf3c 3cbb 9c3c ec53 52bd d9e7 3e3d
00000130: c016 8b3c 00bd 76bd f3b4 3b3c 845c adbd
00000140: 57ce 6c3c 0b30 503c 1009 9bbd cd1c b3bd
-0.070333846 -0.07707492 -0.04644126 -0.0014478707 0.06809215 -0.0029171351 0.08446939 -0.011701851
-0.025697645 0.048926137 -0.09359881 0.01373162 0.046090797 -0.037022986 -0.07484998 -0.07800384
-0.030100029 -0.0029820856 0.033304393 0.062935404 0.066427805 0.0852004 0.035754487 0.0044684024
0.07792778 0.045267813 0.08311899 -0.08694707 0.081081346 0.010067875 -0.06865576 -0.012852916
-0.009500505 -0.013279458 -0.025917642 -0.08248272 -0.0036045793 0.07173645 0.0354784 -0.064614296
0.06458229 -0.09277039 -0.03306368 0.031928245 -0.036912244 0.04397425 0.021348989 0.0995416
0.061552927 -0.08310008 0.06180772 0.045030653 0.029315133 -0.05881942 0.003739146 -0.064127095
-0.07665041 0.06436195 0.06491766 0.07280833 -0.024779238 0.04203863 0.043932587 0.07335674
0.01568177 0.06520245 0.043611195 0.047399342 0.006838302 0.092776604 0.06060284 3.730978e-05
0.023435147 0.019132249 -0.051349565 0.046607826 0.016978621 -0.06023884 0.011456716 -0.084649116
0.014453492 0.012706767 -0.07570088 -0.08745728

fc_model.4.weight f4 [1, 84]
00000000: 1c10 8c3c eb82 863c 1f42 ba3d 842e 73bc
00000010: 9b9c 7bbc 67b6 a8bd 6f17 85bd 01ca a8bd
00000020: 1536 58bd 1761 ce3d cd8e 143b 00de d43d
00000030: 0416 83bc 2b68 a33d 3b9e b2bd 7493 ad3d
00000040: 550e ae3d 11a7 11bd 2cf7 c8bd 2b6a 97bd
00000050: 3280 613d 42e2 6abd 6591 c0bd 19e5 223b
00000060: ab58 90bd d36e c93d 14d6 dfbc 44e9 8ebd
00000070: d4ac 59bc 7a87 e53b 1caf d2b9 d783 a1bd
00000080: fd77 333d 9633 babd 03c7 cf3d 345f 683d
00000090: 0382 a83d 340f a83d 4d6a b8bd c141 f1bd
000000a0: d55c 3dbd 0d24 c7bd defd dcbd 8930 b5bd
000000b0: 7ac4 a2bd 89e3 27bd 84cb 353d 47f7 993c
000000c0: e200 d2bc 7851 89bd 8e27 c8bd 133f 213d
000000d0: de04 92bd 85a8 bb3c 6100 513d 2dfe 1dbd
000000e0: 8b0b 373d 1b03 8bbd e76b 1fbd 1ba0 cbbc
000000f0: d7fa 793d b677 213d 8064 64bd 637c 553d
00000100: 2a4a 03bd 9757 5a3d 9273 3abc a82f 78bd
00000110: eabc 733d b9d2 d93d 1a05 34bb d315 8a3d
00000120: a68c 04bd 1483 93bc e262 d23d 6d38 72bc
00000130: beb9 993d 6d60 f23b f270 df3d 738d a63d
00000140: cb23 ad3d acc0 233d c7f1 adbd f914 493d
0.017097525 0.016419848 0.09094643 -0.014842633 -0.015357162 -0.082379155 -0.0649861 -0.08241654
-0.05278595 0.10077112 0.0022668124 0.10393906 -0.016001709 0.07978853 -0.08721586 0.0847539
0.08498827 -0.035559718 -0.09812769 -0.07393297 0.055053897 -0.057344683 -0.09402732 0.002485579
-0.07048162 0.09835591 -0.02732376 -0.06978086 -0.013285834 0.0070046755 -0.00040184788 -0.078864746
0.0438156 -0.090918705 0.1014538 0.056731418 0.08227923 0.08206025 -0.0900465 -0.1178012
-0.04623111 -0.09723673 -0.10790609 -0.08847148 -0.07947631 -0.04098848 0.04438354 0.018794669
-0.025635187 -0.06704992 -0.097731695 0.039366793 -0.071298346 0.022907505 0.051025752 -0.03857248
0.044688743 -0.06787702 -0.038921263 -0.024856618 0.061030235 0.039420806 -0.055759907 0.052120578
-0.03205315 0.05330619 -0.011380093 -0.060592324 0.059506334 0.10635895 -0.002746886 0.06742444
-0.032360695 -0.018006839 0.10272767 -0.014783961 0.07506131 0.0073967488 0.109102145 0.08132448
0.084540926 0.039978668 -0.08493381 0.049092267
