brain_tumor_model.pth (torch, 179972 bytes, 9 tensors)

cnn_model.0.weight f4 [6, 3, 5, 5]
-0.0066762757 0.020421417 0.124543056 -0.052755784 0.073702715 -0.026157614 0.08664226 -0.06283731
0.14067289 0.015651431 0.12865767 -0.08115818 0.12947482 0.020868946 0.08369111 0.086391754
0.11585527 -0.011386931 -0.029512173 0.053167168 0.015463517 -0.08990177 0.09923335 -0.017475512
-0.06635767 0.04809819 -0.083209254 -0.054909986 -0.028125336 0.103423126 0.054164395 0.04137409
0.010159795 0.06401939 0.09912873 0.004016722 -0.022100564 0.0568074 -0.070301466 0.062057443
0.011597885 -0.08512559 0.1284303 0.040702038 -0.08591727 0.02045208 0.03631698 0.054070935
0.08512528 0.022881238 0.10727595 0.035213888 0.11486 0.10527381 -3.6701606e-06 0.0015061484
-0.0059641385 0.09522684 0.12865598 -0.003294087 0.113879 -0.07228936 0.09383043 -0.055762857
0.044863805 -0.07868205 -0.034724776 0.09928007 -0.050031584 -0.0022198558 -0.04576139 -0.003929834
0.007766327 0.013104016 0.07332619 -0.08241229 0.10081455 -0.114360176 0.0393678 0.06727587
-0.047330018 -0.04770683 0.030903101 -0.08216509 -0.065678306 -0.07478012 -0.031041725 0.038006563
0.05211703 0.06040302 0.05098013 0.08614408 0.026839908 -0.043742307 0.088048555 -0.07199752
-0.041600253 0.0028490187 -0.019685728 0.10147306 -0.05808864 -0.02069235 -0.10227257 -0.002682874
0.09159667 0.08542326 -0.07053215 -0.06823235 -0.0767075 -0.002748696 -0.027007632 -0.023735093
-0.07824859 -0.012542297 -0.009385485 -0.10755518 -0.09405977 -0.14064641 -0.04160643 -0.10431779
0.0860816 -0.013735876 0.03127398 0.0719678 -0.023427667 -0.070775926 0.028043654 0.05146428
-0.00933285 -0.10978174 0.059131827 0.025852242 -0.13604224 -0.09849727 0.108092956 -0.08225406
-0.035315156 -0.047018036 0.0015664857 0.0041125896 0.092841044 -0.042036295 -0.12841323 0.09983011
0.10189183 -0.061797332 0.02864054 -0.09238686 -0.11766893 0.07680939 0.0645424 0.10262153
0.008868785 0.116049595 -0.02092582 0.109207205 0.10994248 -0.082263306 0.14462806 0.008870355
0.14644659 0.117394075 -0.072080694 0.14415203 -0.013922547 -0.059444144 0.0039409106 0.022556154
-0.07723968 -0.094154336 0.10612551 0.07739651 -0.061342124 -0.15120672 -0.10660747 0.119503826
0.14095077 -0.016305026 -0.025157468 -0.053750563 0.16143209 0.07676815 0.118697375 0.09420663
-0.025835108 0.062602736 0.09658242 0.045433637 -0.046824913 -0.048442032 -0.033426475 -0.0441721
0.10167282 0.05681798 -0.0971607 0.04282177 -0.056864798 -0.1206549 -0.09042068 -0.05785717
-0.045101993 0.041782998 -0.05363407 -0.10967794 0.022011278 0.1260146 0.14670123 -0.033899564
0.029187605 0.1363427 0.15698752 0.09273969 -0.072101645 -0.06504617 0.085245624 0.007724464
0.06331866 0.06834736 0.046814043 0.06477378 0.12122195 -0.097013555 0.06486449 0.0073179994
-0.049013514 0.06654506 -0.0063254624 0.13629848 0.05988159 -0.043142904 -0.098134644 -0.09977771
0.14060038 0.0834277 0.12813379 0.12128183 0.022124633 -0.036780395 0.07650844 0.078981794
-0.07075367 -0.034659483 0.03645437 0.10567153 -0.046031076 0.03696497 -0.061293997 0.06717171
-0.07864237 0.09354365 0.07285273 -0.10570352 -0.013783885 0.05204416 0.068380326 0.0021593503
00000000: a9c4 dabb d14a a73c 6e10 ff3d 7316 58bd
00000010: 73f1 963d 7e48 d6bc 7f71 b13d d9b0 80bd
00000020: 8e0c 103e 6e37 803c d6be 033e 4336 a6bd
00000030: 0c95 043e 5af5 aa3c 3f66 ab3d 29ee b03d
00000040: 8745 ed3d 4090 3abc 83c3 f1bc d1c5 593d
00000050: b15a 7d3c 6b1e b8bd db3a cb3d ce28 8fbc
00000060: 88e6 87bd 9c02 453d 9d69 aabd 4be9 60bd
00000070: 1b67 e6bc 81cf d33d 7cdb 5d3d e177 293d
00000080: 4575 263c 991c 833d 0104 cb3d b59e 833b
00000090: 3e0c b5bc e0ae 683d 37fa 8fbd f22f 7e3d
000000a0: 0e05 3e3c 5356 aebd 3c83 033e 2eb7 263d
000000b0: 65f5 afbd 1f8b a73c 1dc1 143d 7c79 5d3d
000000c0: 2a56 ae3d 6f71 bb3c 7eb3 db3d 703c 103d
000000d0: b83b eb3d cc99 d73d e14c 76b6 f469 c53a
000000e0: d26e c3bb 4a06 c33d 65be 033e 9ce1 57bb
000000f0: 6539 e93d 720c 94bd 2b2a c03d 9867 64bd
00000100: 1cc3 373d 0e24 a1bd 913b 0ebd 5953 cb3d
00000110: ebed 4cbd 007b 11bb 4c70 3bbd d6c5 80bb
00000120: ac7c fe3b 3ab2 563c 0b2c 963d c6c7 a8bd
00000130: dc77 ce3d ab35 eabd 2140 213d eec7 893d
00000140: 1fdd 41bd 3d68 43bd 8028 fd3c 2c46 a8bd
00000150: 5982 86bd 5226 99bd 374b febc c5ac 1b3d
00000160: ab78 553d 2869 773d 8ad0 503d 4f6c b03d
00000170: 5edf db3c 222b 33bd cd52 b43d 7073 93bd
00000180: 0765 2abd 9ab6 3a3b f743 a1bc 1cd1 cf3d
00000190: 5bee 6dbd 0183 a9bc 4874 d1bd 28d3 2fbb
000001a0: 0997 bb3d 64f2 ae3d 2973 90bd 67bd 8bbd
000001b0: d218 9dbd 7723 34bb 1c3f ddbc 1970 c2bc
000001c0: cc40 a0bd 357e 4dbc 94c5 19bc e445 dcbd
000001d0: 69a2 c0bd 9d05 10be 816b 2abd 91a4 d5bd
000001e0: 8d4b b03d 710c 61bc 2519 003d db63 933d
000001f0: 61eb bfbc f8f2 90bd cebb e53c 35cc 523d
00000200: cfe8 18bc 40d5 e0bd 3734 723d 15c8 d33c
00000210: a84e 0bbe f0b8 c9bd d75f dd3d d174 a8bd
00000220: a0a6 10bd fc95 40bd 8a52 cd3a e7c2 863b
00000230: 7223 be3d 402e 2cbd c27e 03be bb73 cc3d
00000240: aaac d03d 331f 7dbd 919f ea3c 5235 bdbd
00000250: 68fc f0bd 3e4e 9d3d ce2e 843d 3d2b d23d
00000260: 614e 113c 69ab ed3d a06c abbc 07a8 df3d
00000270: 8629 e13d aa79 a8bd 6119 143e f754 113c
00000280: 18f6 153e 4e6c f03d 0b9f 93bd 979c 133e
00000290: 651b 64bc b47b 73bd c122 813b afc7 b83c
000002a0: d62f 9ebd fdd3 c0bd 5558 d93d 1082 9e3d
000002b0: e141 7bbd efd5 1abe 0455 dabd 6cbe f43d
000002c0: 6655 103e 1e92 85bc 0917 cebc 8d29 5cbd
000002d0: 744e 253e 9f38 9d3d 9c17 f33d 68ef c03d
000002e0: 26a4 d3bc dd35 803d 01cd c53d 9f18 3a3d
000002f0: 7bcb 3fbd 276b 46bd 33ea 08bd ceed 34bd
00000300: d739 d03d f8b9 683d 30fc c6bd e165 2f3d
00000310: 10eb 68bd eb19 f7bd 7a2e b9bd a4fb 6cbd
00000320: debc 38bd a624 2b3d 66af 5bbd d49e e0bd
00000330: ff50 b43c f909 013e d938 163e 45da 0abd
00000340: d81a ef3c 6c9d 0b3e 56c1 203e 4eee bd3d
00000350: 07aa 93bd ed36 85bd 4295 ae3d 801d fd3b
00000360: 37ad 813d b3f9 8b3d 15c0 3f3d 1ea8 843d
00000370: 3743 f83d 0baf c6bd acd7 843d d4cb ef3b
00000380: 65c2 48bd c748 883d d345 cfbb d491 0b3e
00000390: 6646 753d 9db6 30bd d1fa c8bd 4258 ccbd
000003a0: 8cf9 0f3e 24dc aa3d 8135 033e 9c62 f83d
000003b0: b83e b53c 0aa7 16bd 75b0 9c3d 35c1 a13d
000003c0: 4de7 90bd 1af7 0dbd 2d51 153d 516a d83d
000003d0: 158b 3cbd 9568 173d 6a0f 7bbd 5291 893d
000003e0: 400f a1bd d093 bf3d d033 953d 167b d8bd
000003f0: ced5 61bc 422c 553d fc0a 8c3d e383 0d3b

cnn_model.0.bias f4 [6]
-0.0093752025 0.09781311 0.009352081 -0.013024956 0.098148875 0.036253415
00000000: 739a 19bc 3d52 c83d 7939 193c a066 55bc
00000010: 4702 c93d 767e 143d

cnn_model.3.weight f4 [16, 6, 5, 5]
0.07079909 0.048672076 -0.0031994767 -0.03898968 0.022141077 0.06933278 -0.075529434 -0.038199358
0.059783433 0.015370092 -0.074710876 -0.02405232 -0.020700715 -0.021800464 0.033945348 0.04530765
-0.0004811224 -0.0780754 0.0023375566 0.049376663 -0.044769254 -0.029945474 0.03282355 0.0069144196
-0.005561711 0.06696296 0.0008462651 0.08987193 -0.059315477 0.0042675715 0.03245037 -0.0033687067
0.06512411 0.09582676 0.002703507 -0.022600656 0.09162288 0.11725233 -0.031810306 -0.103525184
0.0787724 0.10443097 -0.020026298 -0.013083935 -0.08663815 -0.03579783 0.10386712 -0.022037331
-0.1008878 -0.052971575 0.0032931303 -0.015427068 0.050339147 -0.032545507 -0.006655445 0.024215382
-0.050828137 -0.01404398 0.043820247 0.0012360992 0.02500254 -0.023085488 -0.04352142 0.0038851781
-0.04128323 -0.034193635 0.022324705 -0.021909978 -0.00066107797 -0.01784578 0.013390423 -0.06417648
-0.00949424 0.10570266 -0.049743466 0.020077862 -0.06440056 -0.006303727 0.08328688 0.010446086
0.022565665 0.055157375 -0.053139552 0.019990634 -0.0211295 0.053611517 -0.092732504 -0.039680272
-0.0076291827 -0.043181203 0.030807145 -0.09447939 -0.016597258 0.06546246 0.0011366336 0.0047525987
-0.061590772 -0.08250803 0.044364605 0.015557946 0.08867375 -0.023266597 0.017653678 -0.02658698
-0.024401978 0.020188902 -0.019905336 -0.042586654 -0.04802717 0.038923196 0.07703648 0.097546935
0.00072851736 0.052784335 0.041379854 0.15356457 -0.007847103 0.012234034 0.017317066 -0.032830223
0.031933717 0.030078484 0.0261209 -0.048453532 0.01926326 0.024322616 0.077972166 0.02865657
-0.025948567 -0.0014597087 -0.042239923 0.07089343 -0.0034725163 -0.033855982 0.08629867 0.03922109
0.03489834 -0.033212848 0.05872654 -0.048230194 0.10637825 0.07269014 0.048143286 0.029657757
0.020242678 -0.013964925 0.035329696 0.049787365 0.09644838 0.016100042 -0.055879407 0.018949077
-0.09577029 0.049873162 0.04250081 -0.05838989 -0.06733781 -0.10905655 0.040345397 -0.05393639
0.008981126 0.036267888 0.07872461 0.053229768 -0.007961179 -0.022303326 -0.081307866 0.08600823
0.037648324 -0.088015005 0.084808245 0.0862696 0.003635327 0.019039063 -0.09888179 -0.09687286
-0.0096154045 -0.0070982627 -0.11725238 -0.13890795 0.0811982 -0.028871894 0.029556751 0.10616879
-0.081064306 0.007809102 0.05224619 -0.033219382 -0.038926702 0.045557406 0.010853833 0.09236785
0.010585212 0.008087182 0.10550729 0.03694 0.0026902487 0.063999094 0.10028111 0.06596737
-0.021810513 -0.039210424 0.028148485 -0.010395404 0.07261772 -0.015814876 0.0068252794 -0.029508434
-0.106610194 0.030569317 -0.016339727 -0.029329712 -0.016943276 -0.010073584 0.093632504 -0.038126186
-0.063147634 0.03092148 0.06610679 -0.06666634 -0.010986026 0.04520539 -0.041622423 -0.002455619
-0.08614081 0.019530322 0.08091136 0.043748435 -0.033596672 0.018519863 0.0364562 0.040864937
-0.08939144 -0.0227165 -0.03677984 0.09157732 -0.014277786 0.061114598 -0.017263765 0.034540467
0.07479683 -0.044630907 0.027199106 0.0864392 -0.039889943 0.008343134 0.0659763 -0.10027634
-0.043048408 -0.040007185 0.0011538218 -0.008329429 0.10924161 -0.046775103 0.05680309 0.024684444
00000000: 1dff 903d 5f5c 473d 50ae 51bb a5b3 1fbd
00000010: 3461 b53c 58fe 8d3d 2daf 9abd ee76 1cbd
00000020: 79df 743d d7d2 7b3c 0402 99bd 5f09 c5bc
00000030: 8c94 a9bc e396 b2bc 470a 0b3d 8494 393d
00000040: 283f fcb9 ffe5 9fbd b131 193b 2f3f 4a3d
00000050: f75f 37bd 3650 f5bc fd71 063d 5b92 e23b
00000060: 033f b6bb e023 893d e4d7 5d3a c60e b83d
00000070: c9f4 72bd fcd6 8b3b aeea 043d 85c5 5cbb
00000080: ca5f 853d d240 c43d 522d 313b 0325 b9bc
00000090: c7a4 bb3d fd21 f03d 864b 02bd 0305 d4bd
000000a0: 6d53 a13d e8df d53d 310e a4bc 005e 56bc
000000b0: 586f b1bd bfa0 12bd 49b8 d43d a287 b4bc
000000c0: 439e cebd b9f8 58bd 8fd1 573b d0c1 7cbc
000000d0: 6c30 4e3d 704e 05bd eb15 dabb 565f c63c
000000e0: 2a31 50bd b918 66bc dc7c 333d 9b04 a23a
000000f0: 20d2 cc3c c71d bdbc 8443 32bd 799e 7e3b
00000100: 9b18 29bd a00e 0cbd 4de2 b63c 8e7c b3bc
00000110: 314c 2dba 5031 92bc 8163 5b3c f56e 83bd
00000120: bb8d 1bbc a37a d83d cebf 4bbd 547a a43c
00000130: 71e4 83bd 7f8f cebb 5092 aa3d 0f26 2b3c
00000140: a1db b83c b3ec 613d dca8 59bd 66c3 a33c
00000150: c617 adbc c097 5b3d 8aea bdbd c887 22bd
00000160: 39fe f9bb c6de 30bd 445f fc3c 697e c1bd
00000170: f9f6 87bc 2f11 863d 18fb 943a b0bb 9b3b
00000180: 9b46 7cbd f8f9 a8bd a9b7 353d c1e6 7e3c
00000190: 959a b53d 9799 bebc 729e 903c f0cc d9bc
000001a0: a8e6 c7bc 3263 a53c 8410 a3bc 586f 2ebd
000001b0: 23b8 44bd ee6d 1f3d 4dc5 9d3d b0c6 c73d
000001c0: f9f9 3e3a 6334 583d ec7d 293d 0840 1d3e
000001d0: 2391 00bc 4271 483c 85dc 8d3c fc78 06bd
000001e0: eecc 023d 2767 f63c 7ffb d53c 3677 46bd
000001f0: fccd 9d3c 3940 c73c dfaf 9f3d 2fc1 ea3c
00000200: 1792 d4bc b253 bfba c503 2dbd 9330 913d
00000210: 2893 63bb 92ac 0abd 5bbd b03d 4ba6 203d
00000220: 90f1 0e3d 320a 08bd 3e8b 703d 068d 45bd
00000230: d7dc d93d 91de 943d e531 453d d3f4 f23c
00000240: f9d3 a53c 24cd 64bc dfb5 103d d6ed 4b3d
00000250: ba86 c53d 3ce4 833c cee1 64bd 183b 9b3c
00000260: 3723 c4bd cd47 4c3d 5415 2e3d 3d2a 6fbd
00000270: 68e8 89bd 0a59 dfbd 3741 253d 67ec 5cbd
00000280: 9325 133c a38d 143d 5e3a a13d 7507 5a3d
00000290: 9b6f 02bc 77b5 b6bc bd84 a6bd 1525 b03d
000002a0: 2135 1a3d 3641 b4bd f2af ad3d 1eae b03d
000002b0: ab3e 6e3b cff7 9b3c 8982 cabd 4765 c6bd
000002c0: ee89 1dbc 8b98 e8bb 0422 f0bd e33d 0ebe
000002d0: 3e4b a63d c084 ecbc 0021 f23c 066f d93d
000002e0: 0b05 a6bd 7fe3 ff3b 1a00 563d 0c11 08bd
000002f0: 9b71 1fbd 679a 3a3d 46d4 313c 5b2b bd3d
00000300: 996d 2d3c 1a80 043c 3514 d83d 664e 173d
00000310: e24e 303b f511 833d 2f60 cd3d e719 873d
00000320: f6ab b2bc 1c9b 20bd a797 e63c 7c51 2abc
00000330: 99b8 943d 338e 81bc 98a6 df3b acbb f1bc
00000340: 7256 dabd 816c fa3c e4da 85bc dd44 f0bc
00000350: a0cc 8abc ac0b 25bc 66c2 bf3d 342a 1cbd
00000360: 8c53 81bd 0b4f fd3c ff62 873d 5d88 88bd
00000370: bcfe 33bc 4929 393d 467c 2abd 73ee 20bb
00000380: 986a b0bd 0efe 9f3c dbb4 a53d 8f31 333d
00000390: aa9c 09bd f8b6 973c 1953 153d fe61 273d
000003a0: dc12 b7bd f417 babc 75a6 16bd e48c bb3d
000003b0: 60ed 69bc 4d53 7a3d bd6c 8dbc 4e7a 0d3d
000003c0: 152f 993d e6ce 36bd a9d0 de3c 0907 b13d
000003d0: a363 23bd a4b1 083c 951e 873d af5d cdbd
000003e0: 8753 30bd 93de 23bd d63b 973a 2878 08bc
000003f0: 11ba df3d 4097 3fbd 5baa 683d 0837 ca3c

cnn_model.3.bias f4 [16]
-0.03512914 0.013212426 -0.06481532 -0.018253108 0.026508152 -0.068824194 -0.035787866 -0.060922734
-0.018236576 -0.0863175 -0.010161543 -0.08476156 0.03867333 0.07637675 -0.057402465 -0.1105798
00000000: 93e3 0fbd ee78 583c e5bd 84bd 8b87 95bc
00000010: a027 d93c b3f3 8cbd 4c96 12bd 1e8a 79bd
00000020: df64 95bc 3bc7 b0bd 9a7c 26bc 7897 adbd
00000030: ed67 1e3d 6a6b 9c3d d91e 6bbd aa77 e2bd

fc_model.0.weight f4 [120, 256]
0.03045843 0.05294672 -0.02307029 0.02547018 -0.02107189 0.057793338 -0.07208188 -0.009756781
-0.041210815 -0.046000827 0.062415823 -0.0053058653 0.0729107 0.077923484 0.008283032 -0.049289096
0.07936438 0.0050608553 -0.017650498 0.025374077 -0.008458894 0.04411924 0.07262787 0.032570902
0.12796867 -0.015596246 -0.054964274 -0.01372808 -0.06592264 0.05447076 -0.04893543 0.09206408
0.018674266 -0.030237887 -0.06868773 0.021865258 0.03329745 -0.055909473 0.033493444 0.0468779
0.013335508 0.0063318443 -0.049937937 -0.0013703681 0.07487124 0.009787624 -0.0746748 -0.014960546
-0.08260483 0.080253445 0.03624322 -0.011996793 -0.050696857 0.003591196 -0.09154953 -0.033241976
-0.008570176 -0.10291035 0.027302561 0.007821721 0.043407228 -0.02647065 0.02884924 0.0015581489
-0.03528048 0.0028421408 0.046311304 -0.06857487 -0.048827514 0.08412345 -0.053791426 -0.009748841
0.0030491627 -0.033637095 -0.008388186 0.06150076 -0.03185895 -0.031032367 0.0032951522 -0.021991188
-0.045042586 -0.02153814 -0.018570658 0.047398526 0.027760843 -0.057676505 0.033034336 0.04514063
0.07174012 -0.040131334 0.048580214 0.05374787 0.0072674993 -0.07451983 -0.10023468 -0.019405965
0.09691032 0.057328053 0.043738954 0.05433378 -0.01909285 -0.016394548 -0.059011016 -0.060107466
0.029474344 0.05554515 -0.012511217 0.06292953 -0.03576601 0.03042877 0.0860611 -0.039780498
0.021017147 0.04476529 -0.026532937 -0.015287695 -0.061833683 0.0416994 0.021940822 0.0060063507
0.08026033 0.007976486 0.010291689 -0.008275057 0.038028505 0.02324267 -0.06095496 -0.077242814
-0.02652659 0.040354997 -0.014788444 0.013687425 0.041115128 0.041069202 0.04800823 0.09457145
-0.033968218 0.027524786 -0.059315655 0.035821278 0.08027998 0.030319275 -0.010339416 -0.047837514
-0.030210584 0.026723096 0.02859776 -0.0023389969 -0.016986871 0.015703807 -0.047169477 0.011536307
-0.00940963 -0.0022825743 0.049566448 0.03434526 0.080215074 -0.07127029 -0.058810245 -0.026439581
0.030984193 0.028443879 -0.059195302 -0.011420312 0.07542974 0.120212585 0.099717066 -0.07497059
-0.114516415 0.06093462 -0.051039256 -0.02885855 0.018418757 -0.07835146 -0.063978605 0.027439244
-0.074912846 0.027331227 -0.061555464 0.059412874 0.04126021 -0.04689058 -0.0012692425 0.043039717
-0.020313963 0.06809442 -0.018962614 -0.05351 0.07056384 0.03653872 -0.017710105 -0.049427886
0.025974981 -0.009919951 -0.002902506 0.03458406 0.0842921 0.08826152 -0.024153508 0.03681665
-0.12941976 0.07620727 -0.01686931 0.03618322 0.0065820143 -0.08852315 -0.058808055 0.03461384
0.124603584 -0.08269694 0.04171929 -0.08721863 0.021786781 0.07656767 0.06342526 -0.056214374
0.04107911 0.06392815 -0.037982337 -0.06315159 -0.014403074 0.03273581 -0.0007580403 0.07168114
0.07680759 -0.098409764 0.05222749 0.05525416 0.024368776 -0.0044238004 -0.02251431 0.011653102
-0.048066176 -0.009129965 -0.0066015692 0.04753105 0.0065938835 -0.06591704 0.008048445 0.05734592
0.028326092 0.09593041 -0.04508921 0.064201765 -0.013221579 0.022385664 0.008279299 0.044892788
-0.012656448 -0.06746896 -0.030853732 0.011942769 0.041061755 0.026478667 -0.04782556 0.017482061
00000000: f583 f93c a9de 583d e8fd bcbc d7a6 d03c
00000010: f59e acbc b5b8 6c3d aa9f 93bd e8da 1fbc
00000020: accc 28bd 5d6b 3cbd bca7 7f3d d3dc adbb
00000030: 3552 953d 5996 9f3d 8eb5 073c 5de3 49bd
00000040: cb89 a23d 88d5 a53b c797 90bc 4cdd cf3c
00000050: 2c97 0abc 60b6 343d ecbd 943d 1169 053d
00000060: 380a 033e 6687 7fbc 3822 61bd beeb 60bc
00000070: 7302 87bd bb1c 5f3d 8470 48bd 188c bc3d
00000080: c6fa 983c 72b5 f7bc 27ac 8cbd c51e b33c
00000090: e862 083d 5501 65bd 6c30 093d 0a03 403d
000000a0: 2d7d 5a3c 5c7b cf3b b98b 4cbd ec9d b3ba
000000b0: 1856 993d 455c 203c 1aef 98bd 141d 75bc
000000c0: b92c a9bd eb5b a43d c573 143d 328e 44bc
000000d0: 82a7 4fbd 455a 6b3b 527e bbbd bd28 08bd
000000e0: ec69 0cbc a9c2 d2bd 9fa9 df3c ad26 003c
000000f0: c7cb 313d fad8 d8bc 3e55 ec3c cd3a cc3a
00000100: 4482 10bd 3643 3a3b ecb0 3d3d fb70 8cbd
00000110: 5cff 47bd ea48 ac3d 6654 5cbd 9ab9 1fbc
00000120: 76d4 473b 0dc7 09bd 9a6e 09bc 39e8 7b3d
00000130: 887e 02bd 9737 febc 7bf3 573b dd26 b4bc
00000140: 937e 38bd c170 b0bc 7e21 98bc f524 423d
00000150: b56a e33c 333e 6cbd 034f 073d 62e5 383d
00000160: 7cec 923d c160 24bd 0cfc 463d ba26 5c3d
00000170: 3424 ee3b da9d 98bd d747 cdbd 42f9 9ebc
00000180: eb78 c63d d2d0 6a3d 9e27 333d 198d 5e3d
00000190: 9c68 9cbc dc4d 86bc 89b5 71bd 3f33 76bd
000001a0: 2e74 f13c 5083 633d d9fb 4cbc 33e1 803d
000001b0: 617f 12bd c245 f93c cd40 b03d e0f0 22bd
000001c0: 272c ac3c cf5b 373d 9a5b d9bc 3e79 7abc
000001d0: 5145 7dbd fdcc 2a3d 3dbd b33c ecd0 c43b
000001e0: 875f a43d cfaf 023c 799e 283c 1b94 07bc
000001f0: c7c3 1b3d 6967 be3c e8ab 79bd 7b31 9ebd
00000200: 4b4e d9bc 484b 253d 3b4b 72bc 3941 603c
00000210: 5668 283d 2e38 283d 47a4 443d adae c13d
00000220: 4222 0bbd a97b e13c f9f4 72bd 55b9 123d
00000230: d569 a43d 2160 f83c a766 29bc 45f1 43bd
00000240: 307c f7bc 65ea da3c d945 ea3c db49 19bb
00000250: 0d28 8bbc 45a5 803c c834 41bd c702 3d3c
00000260: d92a 1abc 3e97 15bb 3006 4b3d 9ead 0c3d
00000270: cd47 a43d 28f6 91bd 03e3 70bd d297 d8bc
00000280: 90d2 fd3c 2303 e93c c676 72bd 431c 3bbc
00000290: e87a 9a3d 0432 f63d 7638 cc3d 2e8a 99bd
000002a0: 9587 eabd 9596 793d 8a0e 51bd c468 ecbc
000002b0: efe2 963c bb76 a0bd 3707 83bd 44c8 e03c
000002c0: e86b 99bd bde5 df3c 9521 7cbd ea5a 733d
000002d0: 7700 293d 5610 40bd b65c a6ba 6a4a 303d
000002e0: 7869 a6bc 1675 8b3d 7c57 9bbc 4d2d 5bbd
000002f0: c683 903d a0a9 153d c814 91bc e574 4abd
00000300: 7cc9 d43c 4a87 22bc f837 3ebb 04a8 0d3d
00000310: 56a1 ac3d 75c2 b43d 94dd c5bc 0ecd 163d
00000320: 9d86 04be 8f12 9c3d 8231 8abc db34 143d
00000330: f0ad d73b a04b b5bd b7e0 70bd 3ec7 0d3d
00000340: 2a30 ff3d 035d a9bd d9e1 2a3d ae9f b2bd
00000350: 317a b23c 83cf 9c3d 1ae5 813d 0b41 66bd
00000360: 9242 283d c3ec 823d 5e93 1bbd 9f55 81bd
00000370: dffa 6bbc fc15 063d 39b7 46ba 90cd 923d
00000380: 4c4d 9d3d 0f8b c9bd 7eec 553d 3052 623d
00000390: 07a1 c73c 87f5 90bb ee6f b8bc a7ec 3e3c
000003a0: 0ae1 44bd d995 15bc fa51 d8bb ebaf 423d
000003b0: 8111 d83b 83ff 86bd a0dd 033c 8ee3 6a3d
000003c0: 1f0c e83c 2a77 c43d 77af 38bd 377c 833d
000003d0: 529f 58bc 2462 b73c e6a5 073c 80e1 373d
000003e0: fe5c 4fbc 2b2d 8abd f7c0 fcbc 9bab 433c
000003f0: 5f30 283d cae9 d83c bce4 43bd 8a36 8f3c

fc_model.0.bias f4 [120]
0.03231523 -0.04443779 0.004871933 -0.019676056 -0.048868284 0.009704996 -0.048718248 -0.040132474
0.034252662 -0.038717702 0.02816251 -0.010155374 -0.009716251 0.01880303 0.044437032 0.02153245
-0.046059 0.03459651 0.014847823 0.053732887 -0.026538638 -0.06347883 -0.0022869145 0.034111463
-0.055458296 0.010713237 0.033421203 0.018550271 0.016862432 0.01746813 -0.04861499 0.038633775
0.046625886 0.0061473968 0.030965392 -0.04288185 0.026638921 -0.035424147 0.05878693 0.010925698
-0.009868287 -0.006497375 -0.058872037 0.046254717 -0.013268588 0.031901248 0.0043525924 -0.039939918
0.06433237 -0.030436521 0.045195755 -0.033769224 -0.010697039 0.058972873 -0.023423512 -0.043560263
0.008998823 -0.030260058 0.046324417 0.055423867 0.05600978 -0.010058986 0.012153999 -0.024069477
-0.023695957 0.06051833 -0.028698817 -0.05141263 -0.030708762 -0.010219365 -0.0037666953 -0.056068774
-0.058129653 -0.030013962 0.0064818566 -0.01260545 0.015764253 0.027164087 -0.023530176 -0.010161381
0.0031132298 0.045802534 0.016224144 -0.052949727 0.03640721 -0.008862926 0.023033218 -0.049828038
0.0018330725 -0.03500557 -0.021453777 0.009902341 0.043035705 0.019872116 0.011134543 -0.014074601
0.004824004 0.007569209 0.030227123 -0.021652544 0.009523891 -0.002793031 0.04342362 -0.06731281
-0.02018214 0.06016265 0.055629443 0.036283504 -0.0390846 -0.015145171 -0.021053426 0.035235815
0.0035540052 0.039385535 -0.029503703 -0.025107801 -0.06388321 0.057654094 -0.022188956 -0.062890284
00000000: fa5c 043d 6604 36bd bca4 9f3b ae2f a1bc
00000010: 1c2a 48bd b401 1f3c c98c 47bd f361 24bd
00000020: 854c 0c3d 7496 1ebd 10b5 e63c ba62 26bc
00000030: e930 1fbc d008 9a3c 9b03 363d d264 b03c
00000040: 5da8 3cbd 12b5 0d3d 4944 733c 0417 5c3d
00000050: 8f67 d9bc 3001 82bd 0fe0 15bb 76b8 0b3d
00000060: 3d28 63bd 9386 2f3c ace4 083d bdf6 973c
00000070: 1523 8a3c 5319 8f3c 8320 47bd 733e 1e3d
00000080: c9fa 3e3d 1a70 c93b 22ab fd3c e1a4 2fbd
00000090: de39 da3c e918 11bd 90ca 703d b301 333c
000000a0: 98ae 21bc efe7 d4bb ce23 71bd 9675 3d3d
000000b0: 7e64 59bc e2aa 023d 31a0 8e3b 0a98 23bd
000000c0: b1c0 833d 0356 f9bc 2f1f 393d 9951 0abd
000000d0: a242 2fbc 8a8d 713d aae2 bfbc 3f6c 32bd
000000e0: cd6f 133c f1e3 f7bc acbe 3d3d 2304 633d
000000f0: 836a 653d 72ce 24bc 9121 473c 5a2d c5bc
00000100: 061e c2bc 12e2 773d c819 ebbc 0d96 52bd
00000110: f190 fbbc 206f 27bc a9da 76bb 5fa8 65bd
00000120: 5c19 6ebd d7df f5bc c165 d43b 1787 4ebc
00000130: 0924 813c 3887 de3c 5bc2 c0bc ec7b 26bc
00000140: 5407 4c3b 709b 3b3d 7fe8 843c d0e1 58bd
00000150: ba1f 153d ce35 11bc 29b0 bc3c 7c18 4cbd
00000160: b543 f03a 0062 0fbd d5bf afbc 6e3d 223c
00000170: 3546 303d d9ca a23c a96d 363c 2899 66bc
00000180: ae12 9e3b 2107 f83b df9e f73c ad60 b1bc
00000190: 180a 1c3c 490b 37bb f7dc 313d 4cdb 89bd
000001a0: 0455 a5bc 1c6d 763d b3db 633d 039e 143d
000001b0: 2c17 20bd 7423 78bc 3c78 acbc 6e53 103d
000001c0: 50ea 683b ba52 213d c0b1 f1bc e0ae cdbc
000001d0: 33d5 82bd b326 6c3d 9dc5 b5bc 9fcc 80bd

fc_model.2.weight f4 [84, 120]
0.020726934 -0.14898938 0.036599617 0.03227059 0.047229737 0.11444462 -0.0030065305 -0.07196421
-0.10077372 -0.043091893 -0.004021739 -0.015349747 -0.012223919 -0.034594204 -0.071095474 0.045662362
-0.07003416 -0.049115166 -0.05474642 -0.096296914 -0.06134435 0.010570192 0.040799785 0.04280574
0.09277673 -0.016944628 0.11157955 0.0676821 -0.022687338 0.05582514 0.055320594 0.017131986
0.030046312 -0.104270026 0.085021 0.06731662 0.04932619 -0.0066026915 -0.084527306 0.030490302
0.0741548 0.05568224 0.060938343 -0.030306514 -0.034400493 -0.018731479 0.0029803223 -0.051307824
0.07933462 0.00036433747 0.05249306 0.004541107 -0.0028311482 0.09749909 -0.03134443 0.05098271
-0.06355007 0.11403557 0.009943245 0.06462483 0.099182345 -0.05930178 0.06905675 0.09223128
0.016871389 -0.04766332 -0.06263514 0.004819834 0.0126042785 0.03462897 -0.010327389 -0.082710676
-0.07917957 -0.04809543 0.06787738 -0.06767344 0.02399595 0.10451622 -0.014631376 -0.022293445
0.050270606 -0.055578507 0.022613462 -0.04817704 -0.094994724 0.011433221 0.020340284 -0.008925148
0.03173342 0.08534556 0.039795656 -0.015645124 -0.056261394 0.090803675 0.080603585 0.07164844
0.005422354 0.017666051 0.041526213 0.13062806 -0.11088458 0.060374595 0.023874661 -0.04873535
0.108636774 -0.09386859 0.0010900492 -0.054492034 0.09230816 -0.047764212 -0.08119744 0.066043966
0.056011453 -0.027330486 -0.013715287 0.08236103 -0.031031726 0.010817153 0.048506096 0.039895073
0.03848521 0.16158816 0.022851985 -0.009257375 0.016603151 -0.10839398 0.018823607 0.10816084
0.075097166 -0.024216441 0.040106375 0.019886935 0.011096021 -0.036466416 0.0743577 -0.04819508
0.07086531 0.041995358 -0.02328414 0.08195971 -0.058732755 0.10832198 0.041823614 0.07490081
-0.085071325 -0.1116278 -0.11550214 -0.10329134 0.063246906 -0.122565836 -0.1056185 0.04377229
-0.024538724 0.056183614 0.042067625 -0.073640734 0.05537972 -0.07805234 0.028817749 -0.10700556
-0.03507247 -0.010112644 0.014647046 -0.055466965 -0.097818926 -0.070985496 0.12530546 0.009732398
-0.03501791 0.08425729 0.026845362 -0.026811926 0.03169444 -0.05406704 -0.037856467 -0.116637826
0.08911464 -0.09782902 0.069207266 0.07445875 -0.07348065 0.08560265 0.03893603 -0.12009392
0.029689837 0.020020027 0.03665929 0.030852085 -0.03632107 -0.06809287 -0.04158936 -0.022572638
0.05952332 -0.010226373 -0.08007824 0.049275804 0.0766633 -0.018757896 -0.026509183 0.10378746
-0.04441812 0.03154759 0.064413525 -0.021978512 0.009802145 0.12198597 -0.03679826 0.053324413
0.065681934 0.022457093 -0.035439093 -0.03750024 0.015415874 -0.029170578 -0.059497412 0.040727776
-0.03189163 -0.07611354 -0.010428216 -0.06782167 -0.018647691 -0.080324285 0.048425846 -0.0036495528
-0.110272795 0.08651904 0.07871054 0.049374346 0.0128489155 0.0059909564 -0.033314116 -0.13317429
-0.05398063 -0.035007358 0.0076542236 0.005375898 -0.033216845 0.05800693 -0.072703235 0.0834593
0.08025875 0.019671345 -0.009277797 -0.024608783 -0.12734081 0.032624617 -0.10768031 -0.014457809
-0.0057154577 0.046406228 -0.043032188 -0.07036532 0.014874489 -0.0052908855 0.088353015 -0.044346776
00000000: 88cb a93c ac90 18be 7be9 153d 2b2e 043d
00000010: f873 413d f161 ea3d 3609 45bb f961 93bd
00000020: 7462 cebd 2081 30bd cbc8 83bb 817d 7bbc
00000030: d546 48bc a7b2 0dbd 819a 91bd 7508 3b3d
00000040: 126e 8fbd fc2c 49bd c83d 60bd 5137 c5bd
00000050: 3744 7bbd 992e 2d3c ad1d 273d 1255 2f3d
00000060: ba01 be3d 76cf 8abc d283 e43d ea9c 8a3d
00000070: ccda b9bc e7a8 643d d997 623d 6158 8c3c
00000080: af23 f63c 868b d5bd 7d1f ae3d 4cdd 893d
00000090: 420a 4a3d 645b d8bb a71c adbd ccc6 f93c
000000a0: 79de 973d 0f13 643d 7c9a 793d 5e45 f8bc
000000b0: 88e7 0cbd c272 99bc 8351 433b 2728 52bd
000000c0: 307a a23d 8c04 bf39 f602 573d 91cd 943b
000000d0: c98a 39bb 9aad c73d 0463 00bd 3fd3 503d
000000e0: 8a26 82bd 7b8b e93d fee8 223c 065a 843d
000000f0: 1d20 cb3d 6ce6 72bd a06d 8d3d c1e3 bc3d
00000100: de35 8a3c 9d3a 43bd da46 80bd b3ef 9d3b
00000110: 2d82 4e3c 1bd7 0d3d 3634 29bc 3764 a9bd
00000120: e628 a2bd b7ff 44bd 4c03 8b3d 5f98 8abd
00000130: 2893 c43c 9a0c d63d 70b8 6fbc bea0 b6bc
00000140: 8de8 4d3d 4aa6 63bd de3f b93c 4a55 45bd
00000150: 988c c2bd 6852 3b3c aba0 a63c c93a 12bc
00000160: e7fa 013d a7c9 ae3d c500 233d 342a 80bc
00000170: 5972 66bd 47f7 b93d 7e13 a53d 6bbc 923d
00000180: 01ae b13b 65b8 903c 6417 2a3d 5dc3 053e
00000190: 7417 e3bd 5a4b 773d cb94 c33c b89e 47bd
000001a0: f57c de3d 2d3e c0bd fbdf 8e3a 0a33 5fbd
000001b0: 100c bd3d 68a4 43bd d84a a6bd 0f42 873d
000001c0: 446c 653d 2fe4 dfbc 15b6 60bc e6ac a83d
000001d0: 3f36 febc 6e3a 313c 54ae 463d 0469 233d
000001e0: aba2 1d3d 5e77 253e 1634 bb3c 3fac 17bc
000001f0: 5503 883c aafd ddbd f733 9a3c 6e83 dd3d
00000200: 8bcc 993d 8f61 c6bc 9546 243d ede9 a23c
00000210: 16cc 353c cf5d 15bd da48 983d 3468 45bd
00000220: d521 913d 5303 2c3d 61be bebc 7eda a73d
00000230: c291 70bd ead7 dd3d 3d4f 2b3d 9965 993d
00000240: e039 aebd 1e9d e4bd 638c ecbd 698a d3bd
00000250: 9887 813d cc03 fbbd 834e d8bd 934a 333d
00000260: 6f05 c9bc ca20 663d 1a4f 2c3d f4d0 96bd
00000270: d8d5 623d e8d9 9fbd 3313 ec3c bb25 dbbd
00000280: 26a8 0fbd 81af 25bc 2afa 6f3c 5431 63bd
00000290: 4a55 c8bd d860 91bd 1350 003e a374 1f3c
000002a0: f16e 0fbd 168f ac3d ceea db3c afa4 dbbc
000002b0: 07d2 013d 6775 5dbd 620f 1bbd d0df eebd
000002c0: bd81 b63d 955a c8bd 8abc 8d3d d47d 983d
000002d0: 067d 96bd 7150 af3d 637b 1f3d cdf3 f5bd
000002e0: 1a38 f33c 0a01 a43c 0d28 163d 83bd fc3c
000002f0: 67c5 14bd 4674 8bbd 9b59 2abd 41ea b8bc
00000300: bace 733d 848c 27bc 0f00 a4bd 6dd5 493d
00000310: a601 9d3d 29aa 99bc c929 d9bc 858e d43d
00000320: c6ef 35bd 0c38 013d 3deb 833d 480c b4bc
00000330: 2d99 203c c8d3 f93d c6b9 16bd b36a 5a3d
00000340: 4084 863d f0f7 b73c 9528 11bd da99 19bd
00000350: dd92 7c3c 23f7 eebc 8fb3 73bd 2bd2 263d
00000360: cca0 02bd 6ae1 9bbd 1cdb 2abc 16e6 8abd
00000370: 0bc3 98bc 0f81 a4bd 2e5a 463d 562d 6fbb
00000380: b4d6 e1bd e530 b13d fe32 a13d c13c 4a3d
00000390: 4284 523c c94f c43b 6274 08bd d75e 08be
000003a0: cb1a 5dbd e063 0fbd 48d0 fa3b 4d28 b03b
000003b0: 630e 08bd ad98 6d3d 6fe5 94bd b6ec aa3d
000003c0: b35e a43d cd25 a13c e701 18bc 5c98 c9bc
000003d0: a165 02be 64a1 053d 7f87 dcbd 72e0 6cbc
000003e0: bc48 bbbb 7514 3e3d 8542 30bd b11b 90bd
000003f0: 21b4 733c 2a5f adbb 6df2 b43d f7a4 35bd

fc_model.2.bias f4 [84]
-0.019342922 -0.09139331 -0.008449409 0.06390013 -0.028263073 0.072853565 -0.020048125 0.008076778
-0.012625771 -0.0030489953 -0.08064984 -0.020421159 0.042347115 0.022824211 -0.07745696 0.06305432
0.06263466 -0.0473758 0.069647275 -0.043779667 -0.042927034 -0.031315614 0.05144235 0.075538084
-0.015838956 0.076062016 0.012876 0.06720609 -0.060036372 -0.053803764 0.051680665 0.08283065
-0.07441852 0.00057132036 -0.016866626 -0.045502573 0.0046084733 -0.0143311955 -0.08577175 0.068886265
-0.071481176 0.016165623 -0.010247962 -0.05240062 -0.057446856 0.06758346 0.08428655 0.07999106
-0.07017083 -0.08447804 0.015286626 0.08478706 -0.031180365 0.06620694 -0.04850556 0.0011907758
-0.06975124 -0.06903553 0.08098476 0.061724976 -0.06387595 0.08458422 0.0049736304 0.03326179
-0.07361962 -0.07715864 -0.035273246 -0.012922984 -0.048253722 0.05014665 0.089030385 0.02505229
0.023114892 0.077872805 0.038109925 -0.08960227 -0.015291488 0.043984596 -0.047462326 0.06989057
-0.036229216 0.05393917 0.0139076 0.00070416025
00000000: 0c75 9ebc 6a2c bbbd 646f 0abc 12de 823d
00000010: f687 e7bc 4034 953d f73b a4bc 7654 043c
00000020: 52dc 4ebc a7d1 47bb be2b a5bd 464a a7bc
00000030: 2b74 2d3d d7f9 ba3c c1a1 9ebd a022 813d
00000040: 9a46 803d 200d 42bd 3ba3 8e3d 4f52 33bd
00000050: 42d4 2fbd cd44 00bd 37b5 523d b6b3 9a3d
00000060: b3c0 81bc 67c6 9b3d dcf5 523c 59a3 893d
00000070: b3e8 75bd 5661 5cbd 1baf 533d 1ea3 a93d
00000080: bd68 98bd a9c4 153a e12b 8abc e860 3abd
00000090: ad02 973b 64cd 6abc 19a9 afbd 3e14 8d3d
000000a0: b964 92bd c56d 843c 11e7 27bc 08a2 56bd
000000b0: 654d 6bbd 3269 8a3d 6d9e ac3d 5ad2 a33d
000000c0: b9b5 8fbd d302 adbd c274 7a3c d7a4 ad3d
000000d0: f76d ffbc 8197 873d c4ad 46bd ce13 9c3a
000000e0: bdd9 8ebd 8062 8dbd 56db a53d 54d3 7c3d
000000f0: 65d1 82bd 7e3a ad3d d6f9 a23b 843d 083d
00000100: e2c5 96bd 5905 9ebd ae7a 10bd ecba 53bc
00000110: b2a5 45bd 9366 4d3d 9055 b63d 763a cd3c
00000120: 715b bd3c c77b 9f3d 2719 1c3d 6581 b7bd
00000130: 2689 7abc 3129 343d db67 42bd ca22 8f3d
00000140: 1665 14bd 52ef 5c3d b4dc 633c 6597 383a

fc_model.4.weight f4 [1, 84]
-0.119676605 0.09627185 0.10119014 -0.06067987 -0.068599015 0.06457991 -0.044433534 0.09704249
-0.14369074 -0.071752526 -0.041366294 -0.0526888 -0.06585238 0.032532483 0.04274138 -0.13564463
0.10827394 -0.14254501 -0.12769367 -0.059348084 0.14216867 -0.10684561 0.019121759 -0.08957144
0.019626293 -0.12466974 0.05379317 0.08981772 -0.075449005 -0.06693429 -0.0935224 0.0540256
0.1349131 -0.057590995 -0.11754981 -0.09156766 -0.06875731 -0.094227925 0.024893826 0.112622075
0.112081505 -0.106102295 -0.11200248 -0.052714936 -0.005295048 -0.061723605 -0.06140301 -0.12274547
-0.084118895 0.06370604 0.124218464 -0.07878638 0.0462792 -0.05550614 0.13186617 0.12269088
0.13321239 0.12100697 0.13810182 0.09428251 0.08119569 0.07047809 0.036679514 0.061319545
0.07119978 -0.13658595 0.117819734 -0.01530521 -0.1144364 0.07573594 0.09482832 0.12821852
0.06152879 0.1334338 0.13080277 0.09930922 0.072818406 0.13146192 -0.095263384 -0.13066077
0.055015165 0.022056429 -0.09348402 0.08465877
00000000: 0219 f5bd 2d2a c53d c73c cf3d 758b 78bd
00000010: a47d 8cbd 7942 843d f0ff 35bd 37be c63d
00000020: aa23 13be fdf2 92bd b46f 29bd 36d0 57bd
00000030: 9ddd 86bd c840 053d 9611 2f3d 6de6 0abe
00000040: babe dd3d 52f7 11be 21c2 02be fa16 73bd
00000050: aa94 113e dfd1 dabd 3ca5 9c3c 3b71 b7bd
00000060: 52c7 a03c d952 ffbd 3a56 5c3d 5af2 b73d
00000070: 0285 9abd d814 89bd ac88 bfbd f349 5d3d
00000080: a926 0a3e 89e4 6bbd f4bd f0bd d387 bbbd
00000090: a2d0 8cbd 92fa c0bd 23ee cb3c 67a6 e63d
000000a0: fd8a e53d 294c d9bd 8e61 e5bd 9eeb 57bd
000000b0: 1582 adbb e4d1 7cbd b981 7bbd fa61 fbbd
000000c0: 8746 acbd 5078 823d 4066 fe3d c15a a1bd
000000d0: 428f 3d3d 685a 63bd ed07 073e 5b45 fb3d
000000e0: d468 083e 81d2 f73d 906a 0d3e 3017 c13d
000000f0: ed49 a63d d156 903d 423d 163d 342a 7b3d
00000100: 31d1 913d 30dd 0bbe 794b f13d b4c2 7abc
00000110: a25d eabd 721b 9b3d 5a35 c23d b74b 033e
00000120: 9d05 7c3d dfa2 083e 29f1 053e a262 cb3d
00000130: d121 953d f49d 063e 7319 c3bd f0cb 05be
00000140: 9557 613d afaf b43c 8d74 bfbd 9461 ad3d
